…
he size is a square you can only specify a single number\n","    x = F.max_pool2d(F.relu(self.conv2(x)), 2)\n","    x = x.view(-1, self.num_flat_features(x))\n","    x = F.relu(self.fc1(x))\n","    x = F.relu(self.fc2(x))\n","    x = self.fc3(x)\n","    return x\n","  \n","  def num_flat_features(self, x):\n","    size = x.size()[1:] # all dimension except the batch dimension\n","    num_features = 1\n","    for s in size:\n","      num_features*=s\n","    return num_features\n","\n","net = Net()\n","print(net)"],"execution_count":1,"outputs":[{"output_type":"stream","text":["Net(\n","  (conv1): Conv2d(1, 6, kernel_size=(3, 3), stride=(1, 1))\n","  (conv2): Conv2d(6, 16, kernel_size=(3, 3), stride=(1, 1))\n","  (fc1): Linear(in_features=576, out_features=120, bias=True)\n","  (fc2): Linear(in_features=120, out_features=84, bias=True)\n","  (fc3): Linear(in_features=84, out_features=10, bias=True)\n",")\n"],"name":"stdout"}]},{"cell_type":"code","metadata":{"colab":{"base_uri":"https://localhost:8080/"},"id":"fBSRk88-McDa","executionInfo":{"status":"ok","timestamp":1607324998383,"user_tz":-345,"elapsed":1826,"user":{"displayName":"Kishor Kaphle","photoUrl":"","userId":"07772435281134389955"}},"outputId":"24f003f2-fe8e-489b-e585-49ba8fbd256f"},"sou
…
"MzEhWdNAQYd6"},"source":["Then these methods will recursively go over all modules and convert their parameters and buffers to CUDA tensors:\n"]},{"cell_type":"code","metadata":{"colab":{"base_uri":"https://localhost:8080/"},"id":"egJYBcmoQRk9","executionInfo":{"status":"ok","timestamp":1607328776601,"user_tz":-345,"elapsed":751,"user":{"displayName":"Kishor Kaphle","photoUrl":"","userId":"07772435281134389955"}},"outputId":"5072321b-5ad6-462b-ca4f-8548ace253f3"},"source":["net.to(device)"],"execution_count":35,"outputs":[{"output_type":"execute_result","data":{"text/plain":["Net(\n","  (conv1): Conv2d(3, 6, kernel_size=(5, 5), stride=(1, 1))\n","  (pool): MaxPool2d(kernel_size=2, stride=2, padding=0, dilation=1, ceil_mode=False)\n","  (conv2): Conv2d(6, 16, kernel_size=(5, 5), stride=(1, 1))\n","  (fc1): Linear(in_features=400, out_features=120, bias=True)\n","  (fc2): Linear(in_features=120, out_features=84, bias=True)\n","  (fc3): Linear(in_features=84, out_features=10, bias=True)\n",")"]},"metadata":{"tags":[]},"execution_count":35}]},{"cell_type":"markdown","metadata":{"id":"iK2-5h0ZQ1yt"},"source":["Remember that you will have to send the inputs and targets at every step to the GPU too:"]},{"cell_type":"code","metadata":{"id":"9kFYk4fRQr4G","executionInfo":{"status":"ok","timestamp":1607328894053,"user_tz":-345,"elapsed":1317,"
…
